core/src/main/assets/sleep_stage_preprocessor.tflite (tflite, 321608 bytes, 4 tensors)

truediv_1;strided_slice_3 f4 [128, 1]
00000000: 5e5f aa3d 95ed b63d 7dc2 c53d fde9 cd3d
00000010: 6397 d83d dbec e13d 5d7b e83d 63c0 f03d
00000020: 2fbf f53d dca0 fb3d 80d0 ff3d 370c 013e
00000030: 251c 023e ad8f 033e 6534 043e 9b2b 063e
00000040: 70ff 073e ab59 093e a9be 083e 691d 083e
00000050: 3ca0 083e 26f2 093e 0745 0b3e df5f 0b3e
00000060: a809 0b3e b3ab 093e 5169 093e 1f98 083e
00000070: eabd 083e 524c 093e 4720 093e cb8b 093e
00000080: 06bb 093e 4679 093e b310 093e 6197 083e
00000090: 1177 083e 5e53 083e b856 083e 1973 073e
000000a0: 2640 073e f9c9 063e fb01 063e ca44 053e
000000b0: 3568 053e cff6 043e d122 043e 72e2 033e
000000c0: fe37 033e 7fa4 023e 31f1 013e 3760 013e
000000d0: db53 013e ab52 003e 807e ff3d d54b fe3d
000000e0: 3d12 fd3d 5e1c fc3d e9ca fa3d 867c f93d
000000f0: f52c f83d 8881 f63d 10df f43d 5853 f33d
00000100: bd8e f13d d6a4 f03d 547d ee3d da15 ed3d
00000110: 2f0c eb3d c01a ea3d 2fff e73d 6770 e63d
00000120: bdba e53d 53ea e33d 91c4 e23d 424e e13d
00000130: 7530 e03d 3b49 df3d b564 de3d a458 dd3d
00000140: 1070 db3d c28c da3d 32ab d93d 7d2d d83d
00000150: 27b9 d63d ca84 d53d 52c2 d33d da22 d23d
00000160: 8acf d13d 6f8a d13d ba8b d13d 63a4 d13d
00000170: 7758 d13d dd12 d13d db5e d03d 1754 d03d
00000180: 8cdf cf3d 0cd2 ce3d 43dd cd3d 50b2 cc3d
00000190: a5d2 cb3d 5d3d cb3d 5e92 cb3d a4f4 cf3d
000001a0: 5868 bb3d e8b1 c93d 73b9 c53d dd2c c83d
000001b0: 4f1f c73d 3fd6 bb3d f0db ca3d ffbe b43d
000001c0: b29a ca3d 02af b93d f08a c53d 38f6 c53d
000001d0: b42a c23d aa7e c73d f48d b03d f49e c93d
000001e0: 60d0 b33d b028 c93d ace0 bc3d 8035 c13d
000001f0: a983 c73d 9831 bb3d 9f8c c83d bdf3 9d3d
0.08318971 0.08932034 0.09656236 0.10054395 0.1057575 0.11031505 0.11351655 0.11755445
0.11999356 0.12286541 0.1249094 0.12602316 0.12706049 0.12847777 0.12910612 0.13102572
0.13281035 0.13413112 0.13353981 0.13292469 0.13342375 0.13471279 0.1360055 0.1361079
0.13577902 0.13444404 0.13419081 0.1333928 0.13353696 0.1340802 0.13391219 0.13432233
0.1345025 0.13425168 0.13385276 0.13338996 0.1332667 0.13313052 0.1331433 0.132275
0.13208064 0.13162984 0.13086693 0.13014522 0.13028033 0.12984775 0.12903906 0.12879351
0.12814328 0.12758063 0.12689663 0.1263436 0.12629645 0.12531535 0.124753 0.124168076
0.12356994 0.12310098 0.12245733 0.12181954 0.1211795 0.12036425 0.11956608 0.11881131
0.11794803 0.1175019 0.11644998 0.115764335 0.11476933 0.114308834 0.11327969 0.11251908
0.11217258 0.11128678 0.11072648 0.110012546 0.109467424 0.109026395 0.10859052 0.108079225
0.107147336 0.10671379 0.10628356 0.10555551 0.10484534 0.10425718 0.10339798 0.10260554
0.10244663 0.10231482 0.10231729 0.102364324 0.102219515 0.10208676 0.10174342 0.10172289
0.1015006 0.10098657 0.10051968 0.09994948 0.09952287 0.099238135 0.09940027 0.10154083
0.09150761 0.09848386 0.09654512 0.09774182 0.097227685 0.091717236 0.09905231 0.08825492
0.09892787 0.09066583 0.09645641 0.09666103 0.09480801 0.09740956 0.086208254 0.09844771
0.08779979 0.09822214 0.0922254 0.094340324 0.09741909 0.09140319 0.09792446 0.07712505

zeros_like f4 [21, 29, 128]
00000000: 0000 0000 0000 0000 0000 0000 0000 0000
00000010: 0000 0000 0000 0000 0000 0000 0000 0000
00000020: 0000 0000 0000 0000 0000 0000 0000 0000
00000030: 0000 0000 0000 0000 0000 0000 0000 0000
00000040: 0000 0000 0000 0000 0000 0000 0000 0000
00000050: 0000 0000 0000 0000 0000 0000 0000 0000
00000060: 0000 0000 0000 0000 0000 0000 0000 0000
00000070: 0000 0000 0000 0000 0000 0000 0000 0000
00000080: 0000 0000 0000 0000 0000 0000 0000 0000
00000090: 0000 0000 0000 0000 0000 0000 0000 0000
000000a0: 0000 0000 0000 0000 0000 0000 0000 0000
000000b0: 0000 0000 0000 0000 0000 0000 0000 0000
000000c0: 0000 0000 0000 0000 0000 0000 0000 0000
000000d0: 0000 0000 0000 0000 0000 0000 0000 0000
000000e0: 0000 0000 0000 0000 0000 0000 0000 0000
000000f0: 0000 0000 0000 0000 0000 0000 0000 0000
00000100: 0000 0000 0000 0000 0000 0000 0000 0000
00000110: 0000 0000 0000 0000 0000 0000 0000 0000
00000120: 0000 0000 0000 0000 0000 0000 0000 0000
00000130: 0000 0000 0000 0000 0000 0000 0000 0000
00000140: 0000 0000 0000 0000 0000 0000 0000 0000
00000150: 0000 0000 0000 0000 0000 0000 0000 0000
00000160: 0000 0000 0000 0000 0000 0000 0000 0000
00000170: 0000 0000 0000 0000 0000 0000 0000 0000
00000180: 0000 0000 0000 0000 0000 0000 0000 0000
00000190: 0000 0000 0000 0000 0000 0000 0000 0000
000001a0: 0000 0000 0000 0000 0000 0000 0000 0000
000001b0: 0000 0000 0000 0000 0000 0000 0000 0000
000001c0: 0000 0000 0000 0000 0000 0000 0000 0000
000001d0: 0000 0000 0000 0000 0000 0000 0000 0000
000001e0: 0000 0000 0000 0000 0000 0000 0000 0000
000001f0: 0000 0000 0000 0000 0000 0000 0000 0000
00000200: 0000 0000 0000 0000 0000 0000 0000 0000
00000210: 0000 0000 0000 0000 0000 0000 0000 0000
00000220: 0000 0000 0000 0000 0000 0000 0000 0000
00000230: 0000 0000 0000 0000 0000 0000 0000 0000
00000240: 0000 0000 0000 0000 0000 0000 0000 0000
00000250: 0000 0000 0000 0000 0000 0000 0000 0000
00000260: 0000 0000 0000 0000 0000 0000 0000 0000
00000270: 0000 0000 0000 0000 0000 0000 0000 0000
00000280: 0000 0000 0000 0000 0000 0000 0000 0000
00000290: 0000 0000 0000 0000 0000 0000 0000 0000
000002a0: 0000 0000 0000 0000 0000 0000 0000 0000
000002b0: 0000 0000 0000 0000 0000 0000 0000 0000
000002c0: 0000 0000 0000 0000 0000 0000 0000 0000
000002d0: 0000 0000 0000 0000 0000 0000 0000 0000
000002e0: 0000 0000 0000 0000 0000 0000 0000 0000
000002f0: 0000 0000 0000 0000 0000 0000 0000 0000
00000300: 0000 0000 0000 0000 0000 0000 0000 0000
00000310: 0000 0000 0000 0000 0000 0000 0000 0000
00000320: 0000 0000 0000 0000 0000 0000 0000 0000
00000330: 0000 0000 0000 0000 0000 0000 0000 0000
00000340: 0000 0000 0000 0000 0000 0000 0000 0000
00000350: 0000 0000 0000 0000 0000 0000 0000 0000
00000360: 0000 0000 0000 0000 0000 0000 0000 0000
00000370: 0000 0000 0000 0000 0000 0000 0000 0000
00000380: 0000 0000 0000 0000 0000 0000 0000 0000
00000390: 0000 0000 0000 0000 0000 0000 0000 0000
000003a0: 0000 0000 0000 0000 0000 0000 0000 0000
000003b0: 0000 0000 0000 0000 0000 0000 0000 0000
000003c0: 0000 0000 0000 0000 0000 0000 0000 0000
000003d0: 0000 0000 0000 0000 0000 0000 0000 0000
000003e0: 0000 0000 0000 0000 0000 0000 0000 0000
000003f0: 0000 0000 0000 0000 0000 0000 0000 0000
0.0 0.0 0.0 0.0 0.0 0.0 0.0 0.0
0.0 0.0 0.0 0.0 0.0 0.0 0.0 0.0
0.0 0.0 0.0 0.0 0.0 0.0 0.0 0.0
0.0 0.0 0.0 0.0 0.0 0.0 0.0 0.0
0.0 0.0 0.0 0.0 0.0 0.0 0.0 0.0
0.0 0.0 0.0 0.0 0.0 0.0 0.0 0.0
0.0 0.0 0.0 0.0 0.0 0.0 0.0 0.0
0.0 0.0 0.0 0.0 0.0 0.0 0.0 0.0
0.0 0.0 0.0 0.0 0.0 0.0 0.0 0.0
0.0 0.0 0.0 0.0 0.0 0.0 0.0 0.0
0.0 0.0 0.0 0.0 0.0 0.0 0.0 0.0
0.0 0.0 0.0 0.0 0.0 0.0 0.0 0.0
0.0 0.0 0.0 0.0 0.0 0.0 0.0 0.0
0.0 0.0 0.0 0.0 0.0 0.0 0.0 0.0
0.0 0.0 0.0 0.0 0.0 0.0 0.0 0.0
0.0 0.0 0.0 0.0 0.0 0.0 0.0 0.0
0.0 0.0 0.0 0.0 0.0 0.0 0.0 0.0
0.0 0.0 0.0 0.0 0.0 0.0 0.0 0.0
0.0 0.0 0.0 0.0 0.0 0.0 0.0 0.0
0.0 0.0 0.0 0.0 0.0 0.0 0.0 0.0
0.0 0.0 0.0 0.0 0.0 0.0 0.0 0.0
0.0 0.0 0.0 0.0 0.0 0.0 0.0 0.0
0.0 0.0 0.0 0.0 0.0 0.0 0.0 0.0
0.0 0.0 0.0 0.0 0.0 0.0 0.0 0.0
0.0 0.0 0.0 0.0 0.0 0.0 0.0 0.0
0.0 0.0 0.0 0.0 0.0 0.0 0.0 0.0
0.0 0.0 0.0 0.0 0.0 0.0 0.0 0.0
0.0 0.0 0.0 0.0 0.0 0.0 0.0 0.0
0.0 0.0 0.0 0.0 0.0 0.0 0.0 0.0
0.0 0.0 0.0 0.0 0.0 0.0 0.0 0.0
0.0 0.0 0.0 0.0 0.0 0.0 0.0 0.0
0.0 0.0 0.0 0.0 0.0 0.0 0.0 0.0

strided_slice_2 f4 [128, 1]
00000000: 2633 5e42 40d6 5842 93a5 4842 a2c8 3c42
00000010: 79fe 3442 acfd 3042 8819 2d42 558e 2742
00000020: 8ea6 2242 0aeb 1f42 de7d 1c42 a6aa 1942
00000030: f26e 1842 a6b8 1642 f1bd 1442 c90a 1442
00000040: 58d1 1342 7515 1342 f2f3 1142 1eae 1042
00000050: 0b32 0f42 cb01 0e42 5931 0d42 fc23 0c42
00000060: 7a2c 0b42 cef1 0942 1d94 0842 f280 0742
00000070: e5ed 0642 a57d 0642 99de 0542 4358 0542
00000080: fbb4 0442 0bf3 0342 9a24 0342 5e4a 0242
00000090: 446b 0142 c3a5 0042 eef4 ff41 1776 fe41
000000a0: 0753 fd41 d210 fc41 f7ee fa41 95cd f941
000000b0: 1bde f841 5a16 f841 ec63 f741 ffa3 f641
000000c0: df8e f541 4b81 f441 1d78 f341 7429 f241
000000d0: d112 f141 67e4 ef41 5ce0 ee41 4bc0 ed41
000000e0: 35d0 ec41 3324 ec41 3b60 eb41 87a2 ea41
000000f0: bdfd e941 9330 e941 d785 e841 2bc1 e741
00000100: 219b e641 8283 e541 7a37 e441 abf4 e241
00000110: 25b2 e141 8e47 e041 fec3 de41 1a73 dd41
00000120: 6e8a dc41 096e db41 0981 da41 4e9d d941
00000130: 7415 d941 a57d d841 9f97 d741 f4b8 d641
00000140: 65f0 d541 e018 d541 b01f d441 ecd2 d241
00000150: ba72 d141 734e d041 af16 cf41 0af1 cd41
00000160: fa1a cd41 0467 cc41 0cdd cb41 f45f cb41
00000170: 01a5 ca41 e417 ca41 23bc c941 8467 c941
00000180: d77a c841 2f88 c741 5ac4 c641 bbea c541
00000190: c41e c441 bf91 b641 ba66 8641 edf5 8e40
000001a0: ccd5 38c0 6454 edbf 8e7c 39c0 cdef 28c0
000001b0: 8bce 0ec0 8d6b 4bc0 d392 11c0 a25d 95c0
000001c0: 1f97 18c0 3f28 62c0 2bee 2ac0 f0d5 50c0
000001d0: 4bbb 6dc0 2870 27c0 c7e7 89c0 691d 26c0
000001e0: 6cbe a0c0 cd74 37c0 c265 60c0 2999 4bc0
000001f0: b831 4ac0 3bd4 8fc0 7df2 2bc0 7a07 a8c0
55.54995 54.20923 50.161694 47.19593 45.24851 44.247726 43.274933 41.888996
40.66265 39.97953 39.122917 38.41665 38.108345 37.68032 37.18549 37.010532
36.954437 36.770954 36.488228 36.170036 35.79887 35.50175 35.29819 35.03514
34.793434 34.486137 34.14464 33.875923 33.73232 33.6227 33.46738 33.336193
33.17674 32.987347 32.785744 32.572624 32.35475 32.161877 31.994595 31.807661
31.66554 31.508213 31.366682 31.225382 31.10845 31.010914 30.92379 30.830076
30.694761 30.563131 30.43365 30.27024 30.134188 29.986525 29.85955 29.718893
29.601664 29.517675 29.421988 29.32936 29.248896 29.148718 29.065351 28.96932
28.825747 28.689213 28.527088 28.369467 28.211985 28.034939 27.8457 27.681202
27.567593 27.428728 27.313005 27.201809 27.135475 27.06135 26.949034 26.84031
26.74238 26.637146 26.515472 26.35299 26.181019 26.038305 25.886076 25.742695
25.638172 25.5503 25.482933 25.421852 25.330568 25.261665 25.216864 25.175545
25.05998 24.941496 24.845875 24.739614 24.515022 22.821165 16.80016 4.46752
-2.8880491 -1.8541379 -2.8982272 -2.6396363 -2.2313564 -3.1784394 -2.2745864 -4.66768
-2.3842237 -3.5337064 -2.6707866 -3.2630577 -3.7145565 -2.6162205 -4.309543 -2.595545
-5.023245 -2.866504 -3.5062108 -3.1812232 -3.1592846 -4.494657 -2.6866753 -5.2509127

stft/hamming_window/sub_2 f4 [200]
00000000: 0cd7 a33d 404f a43d bcb7 a53d 2810 a83d
00000010: e457 ab3d 208e af3d ccb1 b43d 8cc1 ba3d
00000020: dcbb c13d f49e c93d d068 d23d 3017 dc3d
00000030: 9ca7 e63d 6c17 f23d a063 fe3d 94c4 053e
00000040: 50c2 0c3e 3c29 143e 74f7 1b3e fc2a 243e
00000050: bac1 2c3e 7eb9 353e fe0f 3f3e d6c2 483e
00000060: 92cf 523e 9c33 5d3e 50ec 673e eef6 723e
00000070: aa50 7e3e 4dfb 843e e4f2 8a3e 930d 913e
00000080: cc49 973e f9a5 9d3e 7720 a43e a1b7 aa3e
00000090: c869 b13e 3835 b83e 3418 bf3e fa10 c63e
000000a0: c21d cd3e bf3c d43e 246c db3e 14aa e23e
000000b0: bef4 e93e 414a f13e bea8 f83e 2b07 003f
000000c0: 91bc 033f a173 073f 672b 0b3f f0e2 0e3f
000000d0: 4999 123f 804d 163f a4fe 193f c2ab 1d3f
000000e0: eb53 213f 2ef6 243f a191 283f 5725 2c3f
000000f0: 65b0 2f3f e631 333f f2a8 363f a914 3a3f
00000100: 2974 3d3f 99c6 403f 200b 443f e440 473f
00000110: 1767 4a3f ea7c 4d3f 9481 503f 5074 533f
00000120: 5d54 563f fe20 593f 7fd9 5b3f 2e7d 5e3f
00000130: 5a0b 613f 6083 633f a0e4 653f 7a2e 683f
00000140: 5c60 6a3f b679 6c3f ff79 6e3f b260 703f
00000150: 572d 723f 74df 733f 9c76 753f 6af2 763f
00000160: 7852 783f 7096 793f fdbd 7a3f d5c8 7b3f
00000170: b2b6 7c3f 5a87 7d3f 973a 7e3f 3ad0 7e3f
00000180: 1d48 7f3f 22a2 7f3f 33de 7f3f 3efc 7f3f
00000190: 3efc 7f3f 33de 7f3f 22a2 7f3f 1d48 7f3f
000001a0: 3ad0 7e3f 963a 7e3f 5a87 7d3f b2b6 7c3f
000001b0: d4c8 7b3f fdbd 7a3f 6f96 793f 7852 783f
000001c0: 68f2 763f 9d76 753f 74df 733f 562d 723f
000001d0: b360 703f fe79 6e3f b679 6c3f 5c60 6a3f
000001e0: 7a2e 683f 9fe4 653f 5f83 633f 5a0b 613f
000001f0: 2c7d 5e3f 7ed9 5b3f fe20 593f 5d54 563f
00000200: 5074 533f 9281 503f ea7c 4d3f 1867 4a3f
00000210: e140 473f 1d0b 443f 98c6 403f 2874 3d3f
00000220: a714 3a3f f0a8 363f e431 333f 64b0 2f3f
00000230: 5625 2c3f a191 283f 2ef6 243f ea53 213f
00000240: c1ab 1d3f a3fe 193f 804d 163f 4599 123f
00000250: f0e2 0e3f 632b 0b3f 9e73 073f 92bc 033f
00000260: 2807 003f b9a8 f83e 444a f13e baf4 e93e
00000270: 12aa e23e 1f6c db3e bd3c d43e c01d cd3e
00000280: f810 c63e 3218 bf3e 3735 b83e c869 b13e
00000290: a0b7 aa3e 7720 a43e f8a5 9d3e c749 973e
000002a0: 8e0d 913e dff2 8a3e 4efb 843e ac50 7e3e
000002b0: f2f6 723e 48ec 673e 9633 5d3e 8ccf 523e
000002c0: d2c2 483e 0210 3f3e 7ab9 353e b8c1 2c3e
000002d0: fa2a 243e 72f7 1b3e 3229 143e 46c2 0c3e
000002e0: 92c4 053e a063 fe3d 6817 f23d 9ca7 e63d
000002f0: 2417 dc3d c868 d23d ec9e c93d dcbb c13d
00000300: 90c1 ba3d c8b1 b43d 208e af3d e457 ab3d
00000310: 2410 a83d bcb7 a53d 404f a43d 0cd7 a33d
0.08000001 0.08022928 0.08091685 0.082062066 0.08366373 0.0857203 0.088229746 0.091189474
0.094596595 0.09844771 0.10273898 0.1074661 0.11262438 0.118208736 0.12421346 0.1306327
0.13746 0.14468855 0.15231115 0.16032022 0.16870776 0.17746541 0.18658444 0.19605574
0.20586994 0.21601719 0.2264874 0.23727009 0.24835458 0.25972977 0.27138436 0.2833067
0.2954849 0.3079069 0.3205602 0.33343223 0.34651017 0.35978103 0.37323153 0.38684827
0.40061766 0.41452596 0.42855942 0.44270384 0.45694536 0.47126964 0.4856624 0.5001094
0.51459605 0.5291081 0.543631 0.5581503 0.57265145 0.58712006 0.60154176 0.61590207
0.63018674 0.6443814 0.6584721 0.67244476 0.6862853 0.69998014 0.7135154 0.72687775
0.7400537 0.75303036 0.76579475 0.7783339 0.7906355 0.8026873 0.8144772 0.82599354
0.8372248 0.8481597 0.8587875 0.8690976 0.87907946 0.8887234 0.8980198 0.9069592
0.9155328 0.92373216 0.931549 0.93897545 0.94600433 0.9526284 0.9588411 0.96463645
0.9700084 0.97495174 0.9794615 0.9835332 0.9871627 0.99034655 0.9930815 0.9953648
0.9971941 0.9985677 0.99948424 0.99994266 0.99994266 0.99948424 0.9985677 0.9971941
0.9953648 0.99308145 0.99034655 0.9871627 0.98353314 0.9794615 0.9749517 0.9700084
0.9646363 0.95884115 0.9526284 0.9460043 0.9389755 0.93154895 0.92373216 0.9155328
0.9069592 0.89801973 0.8887233 0.87907946 0.8690975 0.8587874 0.8481597 0.8372248
0.82599354 0.8144771 0.8026873 0.7906356 0.7783337 0.7657946 0.7530303 0.74005365
0.7268776 0.7135153 0.69998 0.68628526 0.6724447 0.6584721 0.6443814 0.6301867
0.615902 0.6015417 0.58712006 0.5726512 0.5581503 0.5436308 0.5291079 0.5145961
0.5001092 0.48566225 0.47126973 0.45694524 0.44270378 0.42855927 0.4145259 0.4006176
0.3868482 0.37323147 0.359781 0.34651017 0.3334322 0.3205602 0.30790687 0.29548475
0.28330654 0.2713842 0.2597298 0.24835461 0.23727015 0.22648728 0.2160171 0.20586985
0.19605568 0.1865845 0.17746535 0.16870773 0.1603202 0.15231112 0.1446884 0.13745984
0.13063267 0.12421346 0.11820871 0.11262438 0.10746601 0.10273892 0.09844765 0.094596595
0.0911895 0.088229716 0.0857203 0.08366373 0.082062036 0.08091685 0.08022928 0.08000001
