core/src/main/assets/sleep_stage_preprocessor.tflite (tflite, 312404 bytes, 1 tensors)

Identity f4 [1, 21, 29, 128, 1]
000000 61 0d 9e 42 3f 6d 7a 42 4b fa 13 42 31 56 f8 41
       79.02613 62.606686 36.994427 31.042086
000010 95 e6 e3 41 41 a0 1b 42 df ba 20 42 48 cd 12 42
       28.487589 38.906498 40.18249 36.70047
000020 3a 63 9f 41 af 9f 03 42 1c 6f 14 42 f7 f6 10 42
       19.92345 32.90594 37.108505 36.241177
000030 fa 51 ef 41 f2 23 a9 41 67 98 03 42 eb be 0a 42
       29.915028 21.142551 32.89883 34.686443
000040 d7 13 00 42 2d b3 9e 41 13 72 d5 41 85 c4 00 42
       32.019375 19.837488 26.6807 32.191914
000050 64 8d 00 42 87 bb d8 41 ef 2c 32 41 5c f2 e2 41
       32.138077 27.091566 11.13597 28.36834
000060 82 56 f8 41 be 87 e9 41 00 b5 9e 41 b9 e5 ad 41
       31.04224 29.19128 19.838379 21.73717
000070 dc 2b e6 41 4e 8d eb 41 45 67 cb 41 ed 4c a0 c1
       28.771416 29.443996 25.425425 -20.037561
000080 18 c7 c6 41 5b 5f e3 41 b6 4a da 41 4e de 9e 41
       24.847214 28.42156 27.28648 19.858547
000090 b6 b9 88 41 25 b4 d0 41 fe b2 db 41 eb 85 c2 41
       17.09068 26.087961 27.462399 24.31539
0000a0 83 2d e5 40 1f 40 ae 41 a0 c7 d2 41 e1 07 cf 41
       7.1618056 21.78131 26.347473 25.878847
0000b0 19 1f 9f 41 07 bb 3e 41 ea 63 be 41 bc 20 cf 41
       19.890184 11.920661 23.798786 25.890984
0000c0 d5 1b bc 41 45 9e 37 41 ee f5 96 41 2e c4 c4 41
       23.51359 11.47614 18.870083 24.59579
0000d0 cd 2d c6 41 29 73 9f 41 70 6f 91 40 98 c7 ad 41
       24.772364 19.93123 4.544853 21.722458
0000e0 53 9e c4 41 48 39 b7 41 e6 d8 5a 41 df 15 7e 41
       24.577307 22.90297 13.677954 15.88034
0000f0 c1 57 b8 41 4f e7 be 41 63 d8 9f 41 87 2e 04 c2
       23.042849 23.862944 19.980658 -33.045437
000100 1e ea 9d 41 62 78 bb 41 87 5b b3 41 96 78 71 41
       19.739315 23.43378 22.419691 15.09194
000110 9d 86 48 41 00 e1 ac 41 0c b6 b8 41 13 55 a0 41
       12.532865 21.609863 23.08889 20.04154
000120 3c 77 38 40 e4 03 8e 41 32 3d b3 41 23 36 b0 41
       2.8822775 17.7519 22.40488 22.026434
000130 a8 ef 80 41 d3 12 05 41 7a ea a1 41 3a 4a b3 41
       16.11702 8.317096 20.23949 22.411243
000140 84 e4 a0 41 17 e1 01 41 5d 90 7a 41 7b 9c ab 41
       20.11158 8.117454 15.660245 21.451406
000150 7a 98 ad 41 17 64 87 41 e7 b4 db 3f 8c 13 97 41
       21.699451 16.923872 1.7164582 18.884544
000160 74 6c ae 41 2e 8a a1 41 27 3f 30 41 88 49 55 41
       21.802956 20.19247 11.015418 13.330452
000170 9f 59 a4 41 32 62 ab 41 dc c6 8c 41 b2 a2 2b c2
       20.54376 21.422947 17.5971 -42.908882
000180 24 fa 8b 41 63 f5 a9 41 9f 47 a2 41 3a 0c 50 41
       17.497139 21.244818 20.284971 13.002985
000190 2f a4 28 41 8c 40 9d 41 4d 7d a9 41 f4 81 91 41
       10.540084 19.656517 21.186182 18.188454
0001a0 70 62 83 3f 0f 2f 80 41 17 c5 a5 41 59 20 a3 41
       1.0264416 16.022978 20.721235 20.390795
0001b0 6f 64 68 41 33 2b da 40 29 1e 96 41 8a da a7 41
       14.52452 6.8177733 18.764727 20.981709
0001c0 73 d0 95 41 fb 42 d8 40 fb 36 66 41 ab c1 a1 41
       18.726782 6.7581763 14.388423 20.219564
0001d0 b5 16 a4 41 c0 6a 7c 41 55 cb 2d 3f 93 c0 8e 41
       20.511087 15.776062 0.67888385 17.84403
0001e0 c0 6d a6 41 e3 e0 99 41 5f 6c 21 41 00 ab 47 41
       20.803589 19.234808 10.088958 12.479248
0001f0 0b d3 9d 41 8e 2e a5 41 79 e7 86 41 00 00 c8 c2
       19.728048 20.647732 16.863024 -100.0
000200 61 0d 9e 42 3f 6d 7a 42 4b fa 13 42 31 56 f8 41
       79.02613 62.606686 36.994427 31.042086
000210 95 e6 e3 41 41 a0 1b 42 df ba 20 42 48 cd 12 42
       28.487589 38.906498 40.18249 36.70047
000220 3a 63 9f 41 af 9f 03 42 1c 6f 14 42 f7 f6 10 42
       19.92345 32.90594 37.108505 36.241177
000230 fa 51 ef 41 f2 23 a9 41 67 98 03 42 eb be 0a 42
       29.915028 21.142551 32.89883 34.686443
000240 d7 13 00 42 2d b3 9e 41 13 72 d5 41 85 c4 00 42
       32.019375 19.837488 26.6807 32.191914
000250 64 8d 00 42 87 bb d8 41 ef 2c 32 41 5c f2 e2 41
       32.138077 27.091566 11.13597 28.36834
000260 82 56 f8 41 be 87 e9 41 00 b5 9e 41 b9 e5 ad 41
       31.04224 29.19128 19.838379 21.73717
000270 dc 2b e6 41 4e 8d eb 41 45 67 cb 41 ed 4c a0 c1
       28.771416 29.443996 25.425425 -20.037561
000280 18 c7 c6 41 5b 5f e3 41 b6 4a da 41 4e de 9e 41
       24.847214 28.42156 27.28648 19.858547
000290 b6 b9 88 41 25 b4 d0 41 fe b2 db 41 eb 85 c2 41
       17.09068 26.087961 27.462399 24.31539
0002a0 83 2d e5 40 1f 40 ae 41 a0 c7 d2 41 e1 07 cf 41
       7.1618056 21.78131 26.347473 25.878847
0002b0 19 1f 9f 41 07 bb 3e 41 ea 63 be 41 bc 20 cf 41
       19.890184 11.920661 23.798786 25.890984
0002c0 d5 1b bc 41 45 9e 37 41 ee f5 96 41 2e c4 c4 41
       23.51359 11.47614 18.870083 24.59579
0002d0 cd 2d c6 41 29 73 9f 41 70 6f 91 40 98 c7 ad 41
       24.772364 19.93123 4.544853 21.722458
0002e0 53 9e c4 41 48 39 b7 41 e6 d8 5a 41 df 15 7e 41
       24.577307 22.90297 13.677954 15.88034
0002f0 c1 57 b8 41 4f e7 be 41 63 d8 9f 41 87 2e 04 c2
       23.042849 23.862944 19.980658 -33.045437
000300 1e ea 9d 41 62 78 bb 41 87 5b b3 41 96 78 71 41
       19.739315 23.43378 22.419691 15.09194
000310 9d 86 48 41 00 e1 ac 41 0c b6 b8 41 13 55 a0 41
       12.532865 21.609863 23.08889 20.04154
000320 3c 77 38 40 e4 03 8e 41 32 3d b3 41 23 36 b0 41
       2.8822775 17.7519 22.40488 22.026434
000330 a8 ef 80 41 d3 12 05 41 7a ea a1 41 3a 4a b3 41
       16.11702 8.317096 20.23949 22.411243
000340 84 e4 a0 41 17 e1 01 41 5d 90 7a 41 7b 9c ab 41
       20.11158 8.117454 15.660245 21.451406
000350 7a 98 ad 41 17 64 87 41 e7 b4 db 3f 8c 13 97 41
       21.699451 16.923872 1.7164582 18.884544
000360 74 6c ae 41 2e 8a a1 41 27 3f 30 41 88 49 55 41
       21.802956 20.19247 11.015418 13.330452
000370 9f 59 a4 41 32 62 ab 41 dc c6 8c 41 b2 a2 2b c2
       20.54376 21.422947 17.5971 -42.908882
000380 24 fa 8b 41 63 f5 a9 41 9f 47 a2 41 3a 0c 50 41
       17.497139 21.244818 20.284971 13.002985
000390 2f a4 28 41 8c 40 9d 41 4d 7d a9 41 f4 81 91 41
       10.540084 19.656517 21.186182 18.188454
0003a0 70 62 83 3f 0f 2f 80 41 17 c5 a5 41 59 20 a3 41
       1.0264416 16.022978 20.721235 20.390795
0003b0 6f 64 68 41 33 2b da 40 29 1e 96 41 8a da a7 41
       14.52452 6.8177733 18.764727 20.981709
0003c0 73 d0 95 41 fb 42 d8 40 fb 36 66 41 ab c1 a1 41
       18.726782 6.7581763 14.388423 20.219564
0003d0 b5 16 a4 41 c0 6a 7c 41 55 cb 2d 3f 93 c0 8e 41
       20.511087 15.776062 0.67888385 17.84403
0003e0 c0 6d a6 41 e3 e0 99 41 5f 6c 21 41 00 ab 47 41
       20.803589 19.234808 10.088958 12.479248
0003f0 0b d3 9d 41 8e 2e a5 41 79 e7 86 41 00 00 c8 c2
       19.728048 20.647732 16.863024 -100.0
