lucidwatchapp/src/main/assets/cnn_2100_0103.tflite (tflite, 56456 bytes, 10 tensors)

sequential_6/conv1d_12/Conv1D f4 [16]
0.0 0.0 0.0 0.0 0.0 0.0 0.0 0.0
0.0 0.0 0.0 0.0 0.0 0.0 0.0 0.0
00000000: 0000 0000 0000 0000 0000 0000 0000 0000
00000010: 0000 0000 0000 0000 0000 0000 0000 0000
00000020: 0000 0000 0000 0000 0000 0000 0000 0000
00000030: 0000 0000 0000 0000 0000 0000 0000 0000

sequential_6/conv1d_12/Conv1D1 f4 [16, 1, 16, 1]
-0.03250369 -0.15183187 -0.2424851 -0.11976047 -0.2968049 -0.24068047 -0.03239239 0.15471917
0.1057581 0.20490733 0.20894669 0.086260416 0.0753545 -0.23774312 0.074537866 0.25120342
-0.24835186 0.22030787 0.12919225 -0.07024596 -0.18813157 0.28410837 -0.113044195 0.18544464
-0.03566687 -0.15334499 0.03283356 -0.021309847 0.024806762 -0.30693567 0.24029578 0.006144582
-0.123861164 0.032560892 0.06509699 0.09405552 0.18771213 -0.43683115 0.11228532 0.1248666
0.13539916 0.011041477 0.10804946 -0.20910363 -0.1266415 -0.0013252732 0.065586224 -0.015127359
0.012614905 0.1828059 -0.13551706 0.17910695 0.26885957 -0.32782194 -0.029895857 -0.041629244
0.16584866 0.013128215 0.0072004776 0.054161593 0.21986207 0.121206276 -0.1147496 0.13629392
-0.1183114 0.03364091 0.01968622 0.08514778 0.1149219 -0.073656365 -0.15891667 0.18232383
0.16640571 -0.21080633 -0.07192803 -0.14619753 0.27637532 -0.01331003 -0.25511017 0.23100168
-0.18114527 -0.04174902 0.07495269 0.038690127 -0.18375646 -0.18526328 0.20322455 -0.08683267
0.1073152 0.19463694 -0.27697733 0.20125136 -0.040601555 0.018883325 -0.03723349 0.047314536
0.0401667 0.051033605 0.04720418 -0.19174929 0.24002185 0.03751504 0.1402813 0.024163708
0.18549688 -0.13459222 0.14116345 0.05856527 0.121090025 -0.25202122 0.15967911 -0.002404449
0.15703219 -0.05757124 -0.029108308 0.06087397 -0.11487761 0.23872243 -0.092098795 -0.23705581
0.20407881 -0.141759 0.0208914 -0.24474952 -0.12426066 -0.22644831 0.037087694 0.13060495
0.109105974 -0.17843065 -0.16359162 -0.076119356 0.16876124 -0.17717984 0.019583855 0.17982203
0.20902652 -0.19260937 -0.20810536 -0.1613688 0.12902671 0.0221117 0.042617995 0.15694784
0.12717742 0.26056996 0.32588264 0.23148459 0.06702392 -0.24556333 0.075787716 0.09940292
-0.21885109 -0.30877727 -0.12776181 -0.11052126 -0.16121566 -0.1607628 -0.19729804 0.027783958
0.030132735 -0.15640281 -0.015325093 0.13091989 0.21474665 0.21318538 0.1738308 0.105332606
-0.17551844 0.035467803 0.09942348 0.11136865 -0.24660455 -0.32570565 -0.20594284 -0.06305679
-0.17954104 -0.16245416 -0.08745665 -0.18063268 -0.06504424 0.024152482 -0.12278887 -0.22133824
0.014563616 -0.012355235 0.14995147 -0.0847893 -0.12132914 0.13699053 -0.24062243 -0.2414164
0.06305235 -0.03782498 0.07607563 0.28638694 0.018085679 0.13969241 0.22376058 0.24338205
-0.030456562 0.0918748 0.17457707 0.163701 0.14904717 0.07832848 -0.050791077 -0.061424892
0.11196434 -0.081524365 -0.24066469 -0.18691185 0.16002548 0.2841031 -0.11506447 -0.011289891
0.16817689 -0.05077499 -0.07486393 -0.25953022 0.15428683 0.13794416 0.13580532 -0.24097393
-0.23376642 -0.22386949 0.03372751 0.026682213 0.18450993 -0.013931475 0.15533224 0.12842456
0.19362351 -0.17741953 -0.23693724 0.112138666 0.08434265 -0.2548447 -0.24316071 -0.19377273
-0.12507865 -0.27459937 -0.13333003 0.06991671 0.022548031 -0.19449414 -0.10481481 -0.036659516
0.13868752 -0.08064423 -0.034141183 0.22297186 0.23575248 0.25370735 0.09094825 0.06071813
00000000: 9722 05bd d079 1bbe 044e 78be fa44 f5bd
00000010: d0f6 97be f174 76be e2ad 04bd b46e 1e3e
00000020: b497 d83d 3ad3 513e 1ff6 553e 4da9 b03d
00000030: 7653 9a3d ef72 73be 4fa7 983d bc9d 803e
00000040: f34f 7ebe 6398 613e f94a 043e 1ddd 8fbd
00000050: 90a5 40be a776 913e b783 e7bd 33e5 3d3e
00000060: 6d17 12bd 7806 1dbe 7c7c 063d fd91 aebc
00000070: 8d37 cb3c ac26 9dbe 1910 763e 7d58 c93b
00000080: ecaa fdbd 925e 053d 9251 853d 2ea0 c03d
00000090: 9c37 403e 55a8 dfbe d9f5 e53d 0fba ff3d
000000a0: 14a6 0a3e 50e7 343c 0949 dd3d 431f 56be
000000b0: 4fae 01be cab4 adba 1252 863d bed8 77bc
000000c0: bfae 4e3c 7831 3b3e fcc4 0abe d067 373e
000000d0: f6a7 893e 47d8 a7be 28e8 f4bc 6d83 2abd
000000e0: 3bd4 293e ba17 573c fcf1 eb3b 8cd8 5d3d
000000f0: 8623 613e ff3a f83d d701 ebbd a290 0b3e
00000100: 3f4d f2bd 0dcb 093d ff44 a13c f661 ae3d
00000110: 2c5c eb3d 26d9 96bd 0dbb 22be 19b3 3a3e
00000120: 4266 2a3e 9ddd 57be 014f 93bd ceb4 15be
00000130: 1181 8d3e 5012 5abc cd9d 82be b48b 6c3e
00000140: 257e 39be 0501 2bbd cc80 993d 8a79 1e3d
00000150: a72a 3cbe a8b5 3dbe 191a 503e 54d5 b1bd
00000160: 12c8 db3d e84e 473e f9cf 8dbe d614 4e3e
00000170: d14d 26bd 34b1 9a3c 2582 18bd e3cc 413d
00000180: d685 243d 9d08 513d 2c59 413d ed59 44be
00000190: 4ac8 753e 5fa9 193d e7a5 0f3e f8f2 c53c
000001a0: e5f2 3d3e 8bd2 09be 278d 103e 23e2 6f3d
000001b0: 0cfe f73d ed08 81be ec82 233e f693 1dbb
000001c0: 0ccd 203e d2cf 6bbd 8c74 eebc fc56 793d
000001d0: f444 ebbd a773 743e 4b9e bcbd c2be 72be
000001e0: 09fa 503e 4529 11be 7124 ab3c 9e9f 7abe
000001f0: 5f7c febd 11e2 67be 44e9 173d 4ebd 053e
00000200: f472 df3d 86b6 36be 9084 27be 77e4 9bbd
00000210: bfcf 2c3e a26e 35be 526e a03c 4423 383e
00000220: 0c0b 563e 643b 45be 9219 55be dd3d 25be
00000230: 941f 043e 9923 b53c 3590 2e3d efb6 203e
00000240: cc3a 023e 6d69 853e 17da a63e 4c0a 6d3e
00000250: d643 893d f474 7bbe 9736 9b3d c293 cb3d
00000260: 801a 60be 0e18 9ebe fed3 02be f858 e2bd
00000270: b815 25be 019f 24be 7f08 4abe 2f9b e33c
00000280: edd8 f63c 0f28 20be 1916 7bbc dd0f 063e
00000290: 8ce6 5b3e 454d 5a3e b400 323e 9fb8 d73d
000002a0: 1bbb 33be b046 113d 8a9e cb3d 3f15 e43d
000002b0: e785 7cbe e4c2 a6be aee2 52be eb23 81bd
000002c0: 9bd9 37be 625a 26be 791c b3bd c6f7 38be
000002d0: ea35 85bd 6ddb c53c bb78 fbbd 7ea6 62be
000002e0: 3c9c 6e3c 9d6d 4abc e18c 193e 03a6 adbd
000002f0: 6a7b f8bd 3f47 0c3e ba65 76be dc35 77be
00000300: 9721 813d 5eee 1abd 8acd 9b3d 4fa1 923e
00000310: 6b28 943c 870b 0f3e 7e21 653e 2539 793e
00000320: 0a80 f9bc db28 bc3d 55c4 323e 3ca1 273e
00000330: d29f 183e af6a a03d 4e0a 50bd ab98 7bbd
00000340: 8f4d e53d 3ff6 a6bd ce70 76be d265 3fbe
00000350: b8dd 233e f675 913e eca6 ebbd 3cf9 38bc
00000360: 9036 2c3e 70f9 4fbd 4352 99bd 25e1 84be
00000370: 5efd 1d3e 3c41 0d3e 8d10 0b3e dfc1 76be
00000380: 7760 6fbe 0b3e 65be dc25 0a3d a894 da3c
00000390: 2cf0 3c3e d740 64bc 6a0f 1f3e ba81 033e
000003a0: 3e45 463e 77ad 35be ad9f 72be f5a8 e53d
000003b0: d7bb ac3d 017b 82be 1fff 78be 5c6c 46be
000003c0: 9e14 00be 4a98 8cbe ab87 08be 7e30 8f3d
000003d0: a6b6 b83c 7929 47be 26a9 d6bd 4a28 16bd
000003e0: 1a04 0e3e cd28 a5bd a0d7 0bbd bc52 643e
000003f0: 1969 713e eee5 813e 1343 ba3d 93b3 783d

sequential_6/conv1d_13/Conv1D f4 [32]
0.0 0.0 0.0 0.0 0.0 0.0 0.0 0.0
0.0 0.0 0.0 0.0 0.0 0.0 0.0 0.0
0.0 0.0 0.0 0.0 0.0 0.0 0.0 0.0
0.0 0.0 0.0 0.0 0.0 0.0 0.0 0.0
00000000: 0000 0000 0000 0000 0000 0000 0000 0000
00000010: 0000 0000 0000 0000 0000 0000 0000 0000
00000020: 0000 0000 0000 0000 0000 0000 0000 0000
00000030: 0000 0000 0000 0000 0000 0000 0000 0000
00000040: 0000 0000 0000 0000 0000 0000 0000 0000
00000050: 0000 0000 0000 0000 0000 0000 0000 0000
00000060: 0000 0000 0000 0000 0000 0000 0000 0000
00000070: 0000 0000 0000 0000 0000 0000 0000 0000

sequential_6/conv1d_13/Conv1D1 f4 [32, 1, 16, 16]
0.010842761 -0.047654204 -0.0037254964 -0.01031821 -0.0062687867 0.01690625 -0.024364144 0.062631644
0.022276003 -0.060932368 -0.0076334686 0.08850979 -0.01647394 -0.081679896 -0.042885255 -0.07488359
0.06848881 -0.11096632 -0.0242074 -0.05427991 0.096877284 -0.0076689734 0.014952098 -0.04174277
-0.020701354 -0.015148287 -0.041306704 0.056510273 -0.02382362 0.14934641 0.042510934 0.062611975
-0.053635716 0.096004575 -0.014265303 0.030422185 0.027715318 -0.07917577 -0.04027314 -0.0776884
0.08303732 0.03821946 -0.053812396 0.06064238 -0.05226966 0.08016255 0.0010065523 -0.037882723
0.083642006 -0.09656078 0.055701595 0.060351104 0.01578157 0.06413986 -0.09679996 -0.040921427
-0.09501275 0.06098743 0.06978334 0.0280005 0.019597007 0.052169796 -0.048164804 0.0011224815
0.12662214 -0.025755957 -0.07276579 -0.038073525 -0.07711417 0.13494347 0.0034995952 0.041556004
-0.041516777 0.00961999 0.06723988 -0.026215067 0.050329104 0.045505 -0.0108291395 -0.06406677
0.051797707 0.03977386 0.047815856 -0.06648802 -0.053485677 -0.034996748 -0.04008348 -0.07242371
-0.055456426 -0.070021436 0.047655717 -0.04322503 -0.09616302 0.014634738 0.050421927 0.07532768
0.058414 0.01945584 -0.041040372 -0.01830497 0.06578919 0.10405739 0.11932934 0.056062415
-0.07041086 0.09742581 0.080137715 -0.0052187843 -0.02474098 0.10096629 -0.05892503 -0.042722166
0.03510938 -0.019035807 0.022715053 -0.05734992 0.016077299 -0.06442225 0.08132433 0.052301675
0.0036854588 -0.020417748 -0.033000916 -0.019798746 0.040383413 0.05099134 0.04055774 -0.073789075
0.04910007 0.0031226443 -0.09489396 0.101331346 0.017564801 0.021996062 0.04642444 0.0019939684
-0.143925 0.009197997 -0.011108985 -0.0014874318 -0.03736619 -0.09856458 -0.1375028 0.018787567
0.070872724 0.17966333 0.07650659 -0.041405473 -0.042661007 0.103626825 0.08094761 -0.029060297
-0.100275226 -0.054649685 -0.065302335 0.01742363 -0.02766427 -0.07907567 -0.04918767 0.04148786
-0.11080507 0.032123342 0.04048934 0.059450794 0.06230621 0.1636076 0.073809095 -0.092929885
-0.015961006 0.05223215 -0.014058418 -0.02556145 -0.04031079 -0.14930964 0.1274945 0.07531447
-0.055953808 0.0721626 -0.036067747 0.09777312 0.07775879 0.06527595 0.030695694 0.057601906
-0.027533978 0.09715549 0.059004974 -0.021143308 -0.018249882 -0.115875974 0.05009899 0.08362857
0.008747718 0.067567535 0.11334984 -0.0072026155 0.054472554 0.12257885 0.09607673 -0.099803165
-0.004405603 -0.01126047 -0.06758286 -0.08745467 0.0361629 -0.055127725 -0.06987861 -0.020766443
0.07003624 -0.027031548 0.01768956 -0.014375374 -0.026486104 0.015383469 -0.030739332 -0.055103924
-0.11173304 0.017883072 -0.05767786 -0.062090714 -0.05198698 0.107792735 -0.10011522 0.05248669
-0.021317085 0.040752504 -0.085581206 0.011861654 0.06046282 0.11645982 0.025804153 -0.01632909
0.056114268 -0.08146013 0.119721465 0.07218395 0.05665132 0.018346384 0.041404072 0.014262905
-0.029205997 0.07859385 -0.026919879 0.010510334 0.12730193 0.09373413 0.026988763 -0.07938753
-0.015765823 0.010551815 -0.012910416 -0.1214316 -0.02795212 0.058746234 -0.010248142 0.009374432
00000000: d6a5 313c 0e31 43bd 7527 74bb b60d 29bc
00000010: 656a cdbb fa7e 8a3c 5097 c7bc 0545 803d
00000020: 2a7c b63c 3894 79bd 2d22 fabb 9f44 b53d
00000030: 5bf4 86bc ca47 a7bd 73a8 2fbd 915c 99bd
00000040: dc43 8c3d 4f42 e3bd 994e c6bc 9c54 5ebd
00000050: 9967 c63d 034c fbbb a5f9 743c 77fa 2abd
00000060: e395 a9bc 8530 78bc 3831 29bd 5177 673d
00000070: c129 c3bc 44ee 183e f21f 2e3d b53a 803d
00000080: 20b1 5bbd 0c9e c43d 04b9 69bc f237 f93c
00000090: 3c0b e33c e826 a2bd 73f5 24bd 191b 9fbd
000000a0: 780f aa3d 028c 1c3d 636a 5cbd 2564 783d
000000b0: b618 56bd 432c a43d 4aee 833a ea2a 1bbd
000000c0: 804c ab3d a9c1 c5bd 5b27 643d b832 773d
000000d0: 5a48 813c c25b 833d 0f3f c6bd 3a9d 27bd
000000e0: 0b96 c2bd f5cd 793d 91ea 8e3d 4e61 e53c
000000f0: e789 a03c ffaf 553d 7548 45bd 3b20 933a
00000100: 3ca9 013e 28fe d2bc 3b06 95bd fcf2 1bbd
00000110: 09ee 9dbd 9f2e 0a3e 7759 653b a136 2a3d
00000120: 7f0d 2abd 2a9d 1d3c 10b5 893d fbc0 d6bc
00000130: e425 4e3d 7363 3a3d b46c 31bc 7035 83bd
00000140: d529 543d eae9 223d 8fda 433d df2a 88bd
00000150: cc13 5bbd c058 0fbd 932e 24bd e252 94bd
00000160: 4726 63bd 6667 8fbd a432 433d bb0c 31bd
00000170: 1ef1 c4bd 8ac6 6f3c 3987 4e3d 6645 9a3d
00000180: 8543 6f3d db61 9f3c f319 28bd 4ef4 95bc
00000190: 7cbc 863d 0a1c d53d f162 f43d b4a1 653d
000001a0: 9233 90bd 2f87 c73d 3e1f a43d 5602 abbb
000001b0: 98ad cabc 6ac7 ce3d 5f5b 71bd 70fd 2ebd
000001c0: dace 0f3d fbf0 9bbc eb14 ba3c c0e7 6abd
000001d0: 8ab4 833c d0ef 83bd 5f8d a63d 483a 563d
000001e0: bd87 713b 1f43 a7bc f82b 07bd fb30 a2bc
000001f0: 1469 253d 4cdc 503d df1f 263d ba1e 97bd
00000200: 281d 493d 47a5 4c3b c457 c2bd cf86 cf3d
00000210: 0fe4 8f3c 1631 b43c 8e27 3e3d 3dad 023b
00000220: 1361 13be 32b3 163c 7602 36bc eef5 c2ba
00000230: 4a0d 19bd 3adc c9bd 89cd 0cbe 62e8 993c
00000240: b825 913d aaf9 373e 7daf 9c3d c998 29bd
00000250: 4fbd 2ebd 4d3a d43d dcc7 a53d dc0f eebc
00000260: 195d cdbd 59d8 5fbd 3bbd 85bd 00bc 8e3c
00000270: 2ea0 e2bc 6df2 a1bd 0379 49bd 2def 293d
00000280: c5ed e2bd c493 033d 26d8 253d ad82 733d
00000290: cc34 7f3d c088 273e 3929 973d 0652 bebd
000002a0: a8c0 82bc 61f1 553d 4755 66bc 3f66 d1bc
000002b0: ed1c 25bd a0e4 18be eb8d 023e 793e 9a3d
000002c0: d22f 65bd fcc9 933d c6bb 13bd 463d c83d
000002d0: 0040 9f3d 66af 853d 8975 fb3c faef 6b3d
000002e0: f08e e1bc 75f9 c63d 33af 713d bb34 adbc
000002f0: c780 95bc 6250 edbd 9934 4d3d 7545 ab3d
00000300: 9752 0f3c d960 8a3d f623 e83d eb03 ecbb
00000310: 9d1e 5f3d 9f0a fb3d e0c3 c43d 9a65 ccbd
00000320: e05c 90bb d67d 38bc e268 8abd 6f1b b3bd
00000330: 8d1f 143d 9ccd 61bd 841c 8fbd 631e aabc
00000340: 296f 8f3d 4471 ddbc b2e9 903c b086 6bbc
00000350: 63f9 d8bc f20a 7c3c 0dd1 fbbc a7b4 61bd
00000360: 4bd4 e4bd 857f 923c 9f3f 6cbd d552 7ebd
00000370: 4df0 54bd 70c2 dc3d 3509 cdbd 49fc 563d
00000380: 2ba1 aebc 19ec 263d 3345 afbd 6257 423c
00000390: dda7 773d 7c82 ee3d 3b63 d33c 95c4 85bc
000003a0: 13d8 653d 92d4 a6bd 8730 f53d 2ed5 933d
000003b0: 370b 683d 284b 963c 5197 293d f6ae 693c
000003c0: 6a41 efbc d0f5 a03d 1487 dcbc 8933 2c3c
000003d0: 705b 023e aef7 bf3d 8a17 dd3c ee95 a2bd
000003e0: 5427 81bc 85e1 2c3c 3686 53bc 21b1 f8bd
000003f0: d8fb e4bc e49f 703d d3e7 27bc 3897 193c

sequential_6/final/BiasAdd/ReadVariableOp f4 [3]
-0.009588551 -0.052893847 0.07117324
00000000: 4c19 1dbc 38a7 58bd 47c3 913d

sequential_6/dense_6/BiasAdd/ReadVariableOp f4 [10]
0.031124482 -0.03601359 -0.012056465 0.045194913 -0.057844076 0.029140651 0.19065496 -0.0157697
-0.044456635 0.26022914
00000000: c5f8 fe3c fc82 13bd 7b88 45bc 4d1e 393d
00000010: e9ed 6cbd 60b8 ee3c 0e3b 433e 752f 81bc
00000020: 2918 36bd c13c 853e

sequential_6/conv1d_13/BiasAdd/ReadVariableOp f4 [32]
0.012987557 -0.039713234 0.15377685 -0.01203491 0.002744638 0.13451011 0.06565073 -0.0403307
0.0010286071 0.14732462 -0.08753158 -0.015260147 0.26400635 -0.030722497 -0.030935915 0.102949604
0.010966112 -0.04564102 0.005364314 0.0052673896 -0.031682964 -0.008972376 -0.022379126 0.05827455
0.054310624 0.1591023 -0.037372738 0.024683762 -0.016454853 -0.025753109 0.012007302 -0.0053354315
00000000: c3c9 543c 58aa 22bd ae77 1d3e 122e 45bc
00000010: 62df 333b 05bd 093e e473 863d ce31 25bd
00000020: 54d2 863a 44dc 163e c243 b3bd b205 7abc
00000030: d72b 873e bfad fbbc 516d fdbc 3ed7 d23d
00000040: 35ab 333c 14f2 3abd 21c7 af3b 119a ac3b
00000050: ffc5 01bd df00 13bc 6e54 b7bc 4bb1 6e3d
00000060: d174 5e3d b7eb 223e 2814 19bd 9a35 ca3c
00000070: 54cc 86bc 2ff8 d2bc 46ba 443c d8d4 aebb

sequential_6/conv1d_12/BiasAdd/ReadVariableOp f4 [16]
0.0013342431 0.033682894 0.021317324 -0.0006307554 0.041665856 0.011735462 0.021961657 0.007100661
0.00028369026 -0.017686995 -0.024394356 0.0011327917 -0.006593382 0.00015530776 0.00013619229 0.0007384489
00000000: c5e1 ae3a 13f7 093d aba1 ae3c 4759 25ba
00000010: d1a9 2a3d 1846 403c efe8 b33c a9ac e83b
00000020: 43bc 9439 51e4 90bc acd6 c7bc 2f7a 943a
00000030: 4c0d d8bb 1cda 2239 d7ce 0e39 7894 413a

sequential_6/dense_6/MatMul f4 [10, 352]
-0.020116992 -0.12555131 0.30512607 -0.013149402 0.017588459 0.35877156 0.14007762 0.2385417
-0.10497956 0.22166109 0.3109982 0.15044595 -0.4488943 -0.061839793 0.021799522 0.42279896
-0.10679612 0.1314572 -0.032947425 0.14835185 -0.1309153 0.18530878 -0.040759936 0.25466517
0.2422077 0.26382002 -0.014294492 0.085274 -0.0046670786 0.11824288 0.043299407 -0.077015385
0.064081684 -0.12102669 0.2668705 0.028719855 0.10377609 0.24417327 -0.023407292 0.20480923
-0.14688823 0.13948002 0.23203158 0.006728522 -0.334491 -0.14013469 -0.021434592 0.3488316
-0.0040234686 0.089986056 -0.027640846 0.25481924 -0.051593717 0.17336637 -0.07697909 0.23881365
0.14943969 0.43860877 0.0007572295 -0.05701918 -0.076679684 0.04330672 -0.055598892 -0.1786539
-0.004720708 0.10906634 0.17879373 -0.12064955 0.024526538 0.24220918 -0.10495095 0.043917567
0.017809976 0.1436416 0.12937976 0.1038324 -0.30012244 -0.1410236 -0.012936272 0.23459852
-0.036028363 0.21381326 -0.083044656 0.15410528 -0.04599892 0.13306205 -0.06650477 0.06680561
0.19020823 0.24325196 0.07993744 0.087693065 -0.056258585 -0.05228462 -0.033036895 -0.05829649
-0.062171884 0.038991276 0.23071678 -0.005834767 0.021083115 0.28450915 -0.04689138 0.054487485
-0.17844026 0.15615351 0.1587256 -0.021058977 -0.3412409 0.026060909 -0.07238128 0.27089655
-0.12511417 0.25697726 -0.14744858 0.14040168 -0.07795319 -0.021281082 -0.060511276 0.15877998
0.16790615 0.19894473 -0.12233306 -0.0070326924 0.03360415 -0.044485275 -0.013843925 0.00021428139
0.0009954459 0.014644557 0.17364243 0.10685432 0.07575267 0.19569667 0.10152766 0.19343154
-0.09174067 0.07858201 0.2114003 0.08567246 -0.2263946 0.002595835 -0.14096457 0.11169821
0.039762504 0.02388501 -0.14507104 0.18108329 0.045429032 -0.093237504 0.04174097 0.09704316
0.0893771 0.029793106 -0.08797274 0.024317812 0.06968952 0.062047094 0.024299685 0.08398658
-0.04007945 -0.03799233 0.25699326 -0.054008093 -0.041418694 0.15282528 -0.078519605 0.1187204
-0.19932884 0.08700167 0.096063554 0.22747837 -0.26965022 -0.0890813 0.0052157836 0.048587397
-0.121728145 0.060887296 -0.079477094 0.021813411 0.07215511 0.015376457 0.0799777 0.1331957
0.0461428 0.123468995 -0.004353406 0.027435971 -0.021498784 0.11991867 -0.046972588 0.2540708
-0.08722724 0.08335833 0.08668843 -0.12323922 -0.11118623 0.057841334 -0.10264771 0.06963313
-0.21753581 0.056391463 0.15107234 0.19053945 -0.15851505 0.00799559 -0.03783957 0.07415254
0.05545693 -0.121224895 -0.013628686 -0.056793947 0.019269845 -0.058507808 -0.09212916 -0.021229737
0.12033269 0.064707235 -0.100174546 0.05593408 -0.07186236 -0.048011284 0.09523884 0.2505088
0.13959002 0.040897213 0.18229663 -0.055435456 -0.034131598 -0.0043669185 -0.06819528 0.11577622
-0.3325842 0.04631353 0.07558312 0.029344171 -0.063345455 0.059926488 0.0077550597 0.2490671
-0.118781 -0.06903163 -0.046531484 -0.11873936 0.113034956 0.015822522 -0.033934172 0.08856523
-0.05378635 -0.038437907 0.06745033 -0.078048296 -0.020139946 0.12950207 -0.07067571 0.23226903
00000000: 64cc a4bc 8690 00be 7c39 9c3e 9770 57bc
00000010: ac15 903c e8b0 b73e 8270 0f3e 4744 743e
00000020: 86ff d6bd 20fb 623e 283b 9f3e 810e 1a3e
00000030: 79d5 e5be b94b 7dbd e994 b23c 1b79 d83e
00000040: edb7 dabd b79c 063e e1f3 06bd 8ce9 173e
00000050: a90e 06be 96c1 3d3e e4f3 26bd 7963 823e
00000060: 4c05 783e 6b13 873e 7233 6abc 23a4 ae3d
00000070: 4bee 98bb 5329 f23d b85a 313d 3eba 9dbd
00000080: 423d 833d d7dc f7bd 40a3 883e e745 eb3c
00000090: 8f88 d43d 8f08 7a3e a6c0 bfbc 83b9 513e
000000a0: de69 16be dad3 0e3e b099 6d3e ef7a dc3b
000000b0: 6842 abbe 787f 0fbe 9997 afbc 0e9a b23e
000000c0: 4dd7 83bb 9c4a b83d 0e6f e2bc ab77 823e
000000d0: ef53 53bd f486 313e 37a7 9dbd 918b 743e
000000e0: b806 193e 5491 e03e d080 463a f28c 69bd
000000f0: 3d0a 9dbd 6362 313d aabb 63bd 0cf1 36be
00000100: 2bb0 9abb 2c5e df3d b415 373e 1c17 f7bd
00000110: e1eb c83c af05 783e 86f0 d6bd e8e2 333d
00000120: 3ae6 913c c916 133e 217c 043e 15a6 d43d
00000130: a6a9 99be 7e68 10be a8f2 53bc 983a 703e
00000140: 7a92 13bd ddf1 5a3e 5113 aabd c6cd 1d3e
00000150: 5d69 3cbd 6b41 083e a733 88bd 61d1 883d
00000160: f2c5 423e 0b17 793e 3eb6 a33d 6c98 b33d
00000170: 676f 66bd 6628 56bd b251 07bd 4dc8 6ebd
00000180: f2a7 7ebd 51b5 1f3d 0541 6c3e 9331 bfbb
00000190: 7fb6 ac3c 2fab 913e 2d11 40bd 452e 5f3d
000001a0: 0bb9 36be b5e6 1f3e f788 223e e083 acbc
000001b0: 21b7 aebe b07d d53c a33c 94bd f4b2 8a3e
000001c0: ee1d 00be 8692 833e c3fc 16be 75c5 0f3e
000001d0: eca5 9fbd aa55 aebc acda 77bd 3897 223e
000001e0: 97ef 2b3e 2bb8 4b3e c189 fabd 8072 e6bb
000001f0: 81a4 093d 3136 36bd a1d1 62bc b9b0 6039
00000200: 9f79 823a b9ef 6f3c 52cf 313e 70d6 da3d
00000210: 3724 9b3d b564 483e bced cf3d eb12 463e
00000220: 88e2 bbbd 9bef a03d 5279 583e 0b75 af3d
00000230: fcd3 67be e21e 2a3b 0459 10be 08c2 e43d
00000240: 02de 223d 7faa c33c 818d 14be e66d 393e
00000250: cb13 3a3d 4ef3 bebd 94f8 2a3d 90be c63d
00000260: 570b b73d ac10 f43c 0d2b b4bd 2636 c73c
00000270: 61b9 8e3d 1825 7e3d 2210 c73c 2801 ac3d
00000280: 592a 24bd d89d 1bbd 9f94 833e 9737 5dbd
00000290: a6a6 29bd 3b7e 1c3e e3ce a0bd ae23 f33d
000002a0: dc1c 4cbe ee2d b23d f8bc c43d 17f0 683e
000002b0: 980f 8abe 4270 b6bd 2ae9 aa3b 9403 473d
000002c0: 9b4c f9bd f564 793d e3c4 a2bd 0ab2 b23c
000002d0: 0fc6 933d 89ed 7b3c 59cb a33d 7464 083e
000002e0: 3c00 3d3d 50dd fc3d 04a7 8ebb 67c1 e03c
000002f0: 381e b0bc eb97 f53d 5466 40bd 9115 823e
00000300: 32a4 b2bd c6b7 aa3d b489 b13d d864 fcbd
00000310: 9bb5 e3bd 09eb 6c3d f638 d2bd d19b 8e3d
00000320: b5c1 5ebe bcfa 663d b5b2 1a3e c61c 433e
00000330: c551 22be efff 023c aafd 1abd 49dd 973d
00000340: ce26 633d c244 f8bd da4a 5fbc c5a0 68bd
00000350: cbdb 9d3c e2a5 6fbd 37ae bcbd fce9 adbc
00000360: fc70 f63d 3a85 843d 5028 cdbd 221b 653d
00000370: 932c 93bd 7ba7 44bd 950c c33d b042 803e
00000380: b0f0 0e3e d683 273d f8ab 3a3e 4a10 63bd
00000390: 93cd 0bbd 5e18 8fbb f8a9 8bbd 151c ed3d
000003a0: 7a48 aabe 42b3 3d3d 53cb 9a3d 3063 f03c
000003b0: 43bb 81bd 7a75 753d 281e fe3b 720b 7f3e
000003c0: 7443 f3bd 7560 8dbd cc97 3ebd 9f2d f3bd
000003d0: df7e e73d 3c9e 813c 8ffe 0abd b061 b53d
000003e0: 134f 5cbd 1171 1dbd 6623 8a3d c9d7 9fbd
000003f0: 87fc a4bc 319c 043e 6dbe 90bd efd7 6d3e

sequential_6/final/MatMul f4 [3, 10]
0.82383466 0.42638695 -0.37576684 -0.21812306 0.47430062 -0.5413954 -0.49374408 0.31145126
-0.011124128 -0.65581965 -0.9948437 -0.19322206 0.5384495 0.10596547 0.65881044 0.7188211
-0.948102 0.58895695 -0.12287846 -0.4227881 0.027687188 -0.29073387 0.44942075 0.14337733
-0.17508127 -0.38502368 -0.036252286 -0.6184678 -0.59481543 0.4573976
00000000: d4e6 523f 644f da3e 8364 c0be a75b 5fbe
00000010: 88d7 f23e e498 0abf 06cc fcbe 8a76 9f3e
00000020: f941 36bc cce3 27bf 14ae 7ebf 01dc 45be
00000030: d4d7 093f 6d04 d93d cda7 283f a904 383f
00000040: d0b6 72bf e2c5 163f b4a7 fbbd af77 d8be
00000050: 3ed0 e23c 12db 94be 7a1a e63e 82d1 123e
00000060: 8148 33be d321 c5be 477d 14bd e853 1ebf
00000070: d345 18bf 0530 ea3e
