lucidwatchapp/src/main/assets/cnn_2100_og_1902.tflite (tflite, 60136 bytes, 8 tensors)

sequential_1/conv1d_2/BiasAdd/ReadVariableOp f4 [16]
00000000: b912 92bb 2ab0 b5bb c291 543c 9f1f 863b
00000010: b600 bd3b 7f62 3d3d d120 cc3d 2a9a 78bd
00000020: b649 123b 41c8 70bd 7fe6 9d3d adac f13d
00000030: c84f 863d f320 7bbc 8eb4 263d c9aa 46bb
-0.0044577983 -0.005544682 0.0129742045 0.004093125 0.005767907 0.04623651 0.09967197 -0.060693897
0.0022321767 -0.058784727 0.07709979 0.118005134 0.06558186 -0.01532768 0.040699534 -0.0030314198

sequential_1/conv1d_3/BiasAdd/ReadVariableOp f4 [32]
00000000: 6be7 8e3b 8d9c 063e f116 1b3b 86fb d33d
00000010: a6d5 c5bc 232a dfbc 4a6e e7bd f105 f7bc
00000020: 74d6 d13c 5d56 c8bd 5657 c63c 378e 663d
00000030: 4155 be3c 83c0 0c3e 7559 09bd 050a 403a
00000040: a2e4 963c f161 a63d 6848 013e d53c f83d
00000050: 0604 ecbc 95e7 bdb9 79b9 62bc 6ad4 a8bd
00000060: 608d 52bc 1c9f 28bc 4998 343d 3219 24bc
00000070: 923c 4cbc 6a71 bfbb 9329 eebc 2f10 32bd
0.0043610833 0.13145657 0.0023664797 0.10350709 -0.024149727 -0.027241772 -0.11300333 -0.0301542
0.025614955 -0.097820975 0.024211567 0.05628797 0.023234012 0.13745312 -0.03353258 0.0007325712
0.018419567 0.081241496 0.12625277 0.12120978 -0.028810512 -0.0003622143 -0.013838165 -0.0824364
-0.012851089 -0.010291841 0.044090543 -0.010015773 -0.012465613 -0.0058423774 -0.029072559 -0.043472465

sequential_1/conv1d_2/Conv1D f4 [16, 1, 16, 1]
00000000: e6c6 e3bb b35b 14bc adcc d53d d317 7ebd
00000010: 9187 6cbd ceab 49be 14f1 41be f048 84be
00000020: 9b40 2fbd bd7f 2ebd 5001 f23d c724 1b3e
00000030: f682 683e 782d 673d efe9 2b3e 93ad a13d
00000040: 78c8 3ebe e293 cebd 6602 6cbd 1020 a83d
00000050: d272 2dbe 4dc5 b2bd b64e 34be 7ad6 6ebd
00000060: fb5d 2dbe f39e d73d 1356 2e3d 71df 4d3e
00000070: 24a6 833e 4eef 893d f27b d2bd 22c1 1fbe
00000080: 168f 903d 5c8d c6bd c1c1 af3d c6f5 f73c
00000090: 00cb 3bbd 56d2 0f3d 03e4 c83d 2e5f 3abe
000000a0: 87cc 86be c8b7 22be ed8b 223e f4b0 8a3d
000000b0: 2352 1dbe 5c63 023e e03b 6d3d 94b3 063e
000000c0: 2b71 523e 5c87 413e 1d0e 4c3e 8b66 6a3d
000000d0: 2db5 4d3d 7345 5dbe a25e 09be 27c5 db3c
000000e0: ad7b 3f3d 2dcd 7cbd e996 6abe 4ed0 6bbe
000000f0: 2381 9dbc 3925 0fbe 55a2 923d 1278 373e
00000100: 7de6 713d ae82 133e cbe7 b63d 413c 1c3e
00000110: ac73 a6bd bd92 5fbd 125c 68be 618d 15be
00000120: dbae e9bd 7885 e63d f8d8 fe3d 54f7 8bbb
00000130: 15a1 683d 3325 f4bd eb05 1bbe 7ca7 713d
00000140: 4fcb aa3d da3b 333e 09d7 7ebe 0073 61bd
00000150: a4be ae3d e4c8 613d 85eb 7bbd d935 a03d
00000160: 6268 60be 9c6b 01be 9388 ee3d d03b d93d
00000170: 4cec ff3d 7122 cd3d 1657 69be c201 2d3d
00000180: 022c ebbd 8891 60bd 6d27 9d3d 01ce 9c3d
00000190: 8dc2 8b3d 0093 48be 1386 22be 9eb6 33be
000001a0: 2668 dcbd 1fd4 ffbd c616 5abd d286 84bc
000001b0: 7d80 d4bd 9487 edbd 4151 143e 43f2 a4bd
000001c0: acf1 403d c596 bf3d 3b4a 5e3e 769b 033e
000001d0: 8855 503e 450f f23d 130c ee3d 08ff 0f3d
000001e0: 5327 fbbb 7b64 5abe 08dc 42be 71c2 c3bd
000001f0: 6718 cabd 05fe e1bc 5b52 26bc cad4 28bd
00000200: 23a2 66bc 42a9 c4bc 644a e0bc b90d 90bd
00000210: 9ee0 0b3e d17f 8b3c dcdf 0d3e f3ea 753d
00000220: a3d3 373d 9be4 063c 9151 8dbe f96c 87be
00000230: 6870 4ebd a2cc 0a3e 7986 a73d 267c e13d
00000240: 99f6 01be 1aa1 76bd 0f7d 0bbe c9ae cfbd
00000250: eb78 11be c6e1 ddbd 33a6 05bd 1089 20be
00000260: 86ee 743d 0608 033d 113d 033e 6c52 233e
00000270: b399 133e 9920 6a3e bae8 f33d d12a 1a3d
00000280: 5752 eebd 057a 973d 154b 5bb9 9253 47be
00000290: d012 03be 7760 333e bf5a 743e ecf8 debd
000002a0: 9c7a 84be 8aa6 bcbb 3e35 123e d5c8 463d
000002b0: 9922 e0bd 2a88 5d3d f9ab 463e bed6 d5bd
000002c0: 71ae 923b 39b3 483d 2737 763d 332f 8a3d
000002d0: 0685 3c3e ed4d 98bd a33d 233e f85e 373e
000002e0: b9da d43d 8d3d c9bd f9d1 09be d22f 423e
000002f0: b845 1c3e 8ed7 3a3e 95b6 503d 96da adbd
00000300: 20be 223e 2a2f 7dbd b5f3 183c 17a8 24be
00000310: 30d7 a73d 5596 803d 7749 393e 34db 1e3d
00000320: 0466 f73d f2a3 1dbe cea3 63be 9d4d ed3d
00000330: 6ed1 023e a07c b93d b912 403d 0a2c 3a3e
00000340: eb82 cfbc b92b 353e d873 893d 05a1 2a3e
00000350: a970 0b3e 6808 153e f16d 183e c0ef b13c
00000360: bb71 0dbe ce6a d13d e82d fe3d 3085 a7bd
00000370: fff9 243d ef44 b5bc 543a 6fbe d94d aabe
00000380: 2fb2 793e 9571 41bd c518 de3d dc1a 42be
00000390: 0a29 5bbe df20 fe3d 01c5 703d 291a b13d
000003a0: 8ff6 9a3b 0242 263e bd25 19be 4ced 9abd
000003b0: 8eb4 583e 1f37 503d 57c0 2fbe a791 38be
000003c0: b4d1 92be 24fb 8dbe 99e4 d7bd 1160 98bd
000003d0: 5f71 10be faf1 c1bd 8f91 82be 0652 89be
000003e0: 4209 25be 90c1 b1bc 11b4 febd 78e0 8c3c
000003f0: 681b b53d 0476 e2bd 9980 bdbd 588e 5c3d
-0.006951201 -0.009055066 0.104394294 -0.06203444 -0.057746474 -0.19694445 -0.1893962 -0.25836897
-0.042786222 -0.04260229 0.118166566 0.15150748 0.22706208 0.056439847 0.16788457 0.07894435
-0.1863116 -0.100868 -0.057619475 0.082092404 -0.16938332 -0.087290384 -0.17608151 -0.05831001
-0.16930382 0.10528364 0.042562556 0.20104767 0.25712693 0.06735097 -0.10277547 -0.15601018
0.070585415 -0.09694931 0.085818775 0.030268561 -0.045847893 0.0351127 0.09809115 -0.1820037
-0.26327917 -0.1589042 0.1587369 0.067720324 -0.15363364 0.12733215 0.05791843 0.13154441
0.20550983 0.18899292 0.19927259 0.0572267 0.05022161 -0.21608524 -0.13415006 0.026827408
0.046748806 -0.06171911 -0.2290913 -0.2302868 -0.019226616 -0.13979043 0.07159869 0.17916897
0.0590577 0.14405319 0.0893093 0.1525736 -0.081275314 -0.0545833 -0.22691372 -0.14604713
-0.11410304 0.11255926 0.12443727 -0.004271427 0.056794245 -0.11921158 -0.15138976 0.058997616
0.08339559 0.175033 -0.24886717 -0.055041313 0.085324556 0.055123225 -0.061503906 0.078227706
-0.21914819 -0.12638706 0.11647143 0.106071115 0.12496242 0.10016335 -0.22787127 0.042238005
-0.11483003 -0.05482629 0.076735355 0.076564796 0.06824217 -0.19587326 -0.15871458 -0.17550132
-0.10762052 -0.12491631 -0.053244375 -0.016177569 -0.1037607 -0.11598125 0.14484121 -0.0805402
0.047105476 0.09354929 0.21708004 0.12852272 0.20345128 0.11819319 0.11623397 0.035155326
-0.0076646 -0.21327393 -0.19029248 -0.09558571 -0.09867936 -0.027586946 -0.010151471 -0.041218556
-0.014076742 -0.02400649 -0.027379222 -0.070338674 0.13659903 0.017028721 0.13854927 0.06003852
0.044879567 0.008233215 -0.27601293 -0.26450327 -0.050400168 0.13554624 0.081799455 0.110100076
-0.12691726 -0.060212232 -0.13621925 -0.101407595 -0.14206283 -0.108340785 -0.032629203 -0.15677285
0.059797786 0.031990074 0.12816264 0.1594941 0.144141 0.22863998 0.119096234 0.03763849
-0.11636799 0.0739632 -0.00020913438 -0.19465473 -0.12800145 0.17517267 0.23862742 -0.10887322
-0.25874794 -0.0057571577 0.14278123 0.048531372 -0.10944099 0.054084934 0.1940154 -0.104413494
0.0044763614 0.048999045 0.06011119 0.06747284 0.1841012 -0.07436738 0.15941481 0.17907321
0.103932805 -0.09826193 -0.13459004 0.18963555 0.1526097 0.1824629 0.050955374 -0.084889576
0.1589284 -0.061812557 0.009335448 -0.16079746 0.08195341 0.062786736 0.18094431 0.038783267
0.12080005 -0.15394571 -0.22230455 0.11587069 0.12775204 0.090569735 0.046892855 0.18180862
-0.025330981 0.1769246 0.067115486 0.16662987 0.13617195 0.14553988 0.1488569 0.021720767
-0.13812916 0.102254495 0.124111 -0.081797004 0.040277477 -0.022127597 -0.23362094 -0.33262518
0.24384378 -0.04722746 0.10844568 -0.18955559 -0.21402374 0.124086134 0.058781628 0.08647568
0.004729099 0.16236117 -0.14955802 -0.07564792 0.21162626 0.050833818 -0.17163216 -0.18024312
-0.28675616 -0.27730668 -0.105416484 -0.07440198 -0.14105748 -0.094699815 -0.25501677 -0.2682039
-0.16116813 -0.021698743 -0.12436689 0.017196879 0.08843118 -0.11057666 -0.09253044 0.053846687

sequential_1/conv1d_3/Conv1D f4 [32, 1, 16, 16]
00000000: ab6b 42bd bcec bfbc 2e6c dc3c 2e48 033e
00000010: 803b 2b3b d60a 193d 1782 08bd 52c0 133e
00000020: b6dd 963d 36f7 033d cee0 6abd 93f6 73bd
00000030: 47e1 793d 711d 05bc e85f a53c 84cb 02bd
00000040: f939 823c ddfa a43b c541 883d 3901 9ebc
00000050: 62fd 083c c6d0 b73d 1165 2e3d 63cd eb3d
00000060: 8a0a c83c 6977 ee3c f492 a63d 63ae f13c
00000070: 8195 dcbd c639 193c c1ac 9cbd 2541 933d
00000080: d3b3 113e c2ab 593d 0bc1 c13d 2b5b fd3d
00000090: b5a1 cd3d 9bd4 e43d ee77 fa3d 9ed3 a83d
000000a0: e740 a9bc f61f cabb 0c32 fdbd 6cb1 a6bd
000000b0: 5ae7 f53c 98a3 71bd b97f ed3c b2d4 063e
000000c0: 7545 0e3e 458a 27bd 3c90 64bd 3127 a8bc
000000d0: 7429 c4bc 17e7 9bbd 6d1a 5f3b 316f 24bc
000000e0: 8fd7 813d 406f 893d 9aa8 babd d099 82bd
000000f0: ce56 c33d a16c 813d 7ff5 55bc 296c 8c3d
00000100: 91f0 c93d c155 9fbd a6cd 9439 9b3d 143d
00000110: 1b2e fb3a a467 b3bc df25 be3d d10f 68bb
00000120: 79aa 443e 7822 ab3d 691a 513d 51f7 3fbc
00000130: db91 0a3c 0e69 c03d a987 053d d49a 5dbc
00000140: 4fb3 f23d 7072 b03d bc1e 9b3d 896d 6c3d
00000150: ec68 b03d 50a4 3ebd 347f 613d 326e 983d
00000160: 73aa a13c 112b f33d 7611 babc df3a 81bd
00000170: 41d4 f7bd 149e b6bb 2897 23bd 7faf fa3d
00000180: 5e05 643d e706 c33d c500 0e3d 134b bc3d
00000190: bf43 023e ad31 eebd a59e d33d e4b7 d53d
000001a0: 797d 503d a7de a63d 1dcb 55bd 4623 b5bd
000001b0: 85af 3a3b db79 803d fc2d 2ebe 3b48 da3d
000001c0: c1c9 d43d afa7 34bb 2ff4 a3bd 86a5 38bd
000001d0: 5afe b23d dc56 c43b 9b2b 91bd 2cae 66bc
000001e0: b936 523d 3883 963d 8525 b7bd 1be9 533c
000001f0: 8b6f 3bbd af5d 40bc 8e75 edbd aeb5 c03d
00000200: c1dd 873d 54ef 473c e592 0abe 7d31 91bd
00000210: 5859 a43c e28e 283d 6e1a dd3c c707 e23a
00000220: 9ec5 31bd dfdf e63d 42fa d0bd 33b6 2abd
00000230: 3c53 133b 944b 1abd 5fa2 26be a733 fbbc
00000240: d761 20bd 6c2b 99bd e208 19bd 011d 5a3d
00000250: a34e 0bbd 5e24 3d3d b6bd 59bc 3f58 4ebd
00000260: 9434 52bd 6ac7 bc3c 8f57 c8bc dcff f3bc
00000270: 71b6 d2bc b552 e7bc 1547 eb3c a88a 463d
00000280: c33c c83d e3a7 f5bc eac3 dfbd 7167 f2bb
00000290: 45c5 09bc 8a9b 433d ee29 983c d3b0 6bbd
000002a0: b8ef 1e3c 57b3 fcbc 982d 67bd c8f3 67bc
000002b0: 5ec0 8bbd 929a fe3d fc06 84ba 9189 8b3c
000002c0: b287 ea3d 6815 123c 5894 d3bd 88fd a4bb
000002d0: 8d68 bc3d 12cf a53b 8dd1 75bd a588 7b3d
000002e0: 77b5 11bd b03c d93d fded a9bd 4c81 23bd
000002f0: a8b9 803b ed49 333d cfa3 23bd 8754 cf3d
00000300: 6ccc 023c 594c 9abd 1a01 a8bd b073 8a3d
00000310: 2076 8bbd 48ac 32bc e4d1 25bc e9af 7f3c
00000320: ace1 f23d 5bf4 7bbd 0f5b 76bd d539 bb3d
00000330: 1722 993d 68c8 503d b0d2 59bd a4d8 5b3d
00000340: 53af ab3d 3f7b b2bd 5a5c 903d d3a3 2e3c
00000350: a954 063d fde6 afbb a7b2 573d b4a9 1fbd
00000360: 0a48 383e 7d0a de3d 6f70 03be 2492 ca3d
00000370: 7703 b23d aebc 983d 701f d0bd 660d 6ebb
00000380: e707 213d 3794 893d ab61 b33d f63d 3d3d
00000390: 8c3b 353d 9dcf 98bd 78a7 803d a7e9 f43d
000003a0: 9c4d e93c 3e29 1f3d 968f ddbd 1793 013c
000003b0: f2e8 f43d 47bf cc3d c9a5 9fbd 4aa3 79bd
000003c0: 2940 cf3d 0379 d33d 5568 9a3d 85ff d63d
000003d0: 1a39 d73d 45ab 54bd 3f2d a43c dd57 c3bc
000003e0: db36 953d 577c ef3c 5a29 f4bd aa9c d13c
000003f0: 30f5 0f3d 3c16 48bd 2c1f 26bd d8b6 a33d
-0.04746596 -0.023428313 0.026907053 0.12820503 0.0026127994 0.03736385 -0.03332719 0.14428833
0.07366507 0.03221818 -0.057343297 -0.059561323 0.061005857 -0.008124695 0.020187333 -0.03193237
0.015896784 0.005034788 0.066531695 -0.019287692 0.008361192 0.08975367 0.042576853 0.11513784
0.024419088 0.029109674 0.08133498 0.0295021 -0.10770703 0.009352153 -0.07650138 0.0719016
0.14228754 0.053142317 0.09460648 0.123709045 0.10040609 0.11173364 0.12229906 0.08243488
-0.02066083 -0.006168361 -0.12363061 -0.08139309 0.030017544 -0.058993906 0.028991567 0.13167074
0.13893683 -0.04090335 -0.055801615 -0.0205265 -0.023945548 -0.07612436 0.003404285 -0.010036276
0.06339943 0.067106724 -0.091141894 -0.06376994 0.09538041 0.063195474 -0.013059019 0.068565674
0.098603375 -0.07780028 0.0002838198 0.036191564 0.0019163521 -0.021900006 0.09284567 -0.0035409818
0.19205655 0.08356184 0.051050577 -0.01171668 0.008457626 0.093950376 0.03260008 -0.013525683
0.11850607 0.08615577 0.075742215 0.05772165 0.08613762 -0.04654342 0.05505295 0.07442893
0.019734597 0.11873449 -0.022713404 -0.06310057 -0.12101031 -0.0055730436 -0.039939076 0.122405045
0.05566918 0.09522801 0.034668703 0.09194007 0.12721156 -0.11630569 0.103329934 0.10435465
0.05090091 0.08147936 -0.052195657 -0.088446185 0.0028485965 0.06273242 -0.17009729 0.10658308
0.10390044 -0.0027565768 -0.08005559 -0.04507973 0.0873992 0.0059917998 -0.07088395 -0.014079612
0.05132172 0.07349247 -0.08942703 0.012933995 -0.045760673 -0.011741086 -0.115946874 0.09409653
0.06634093 0.012203056 -0.13532598 -0.07089517 0.020062134 0.04115189 0.026990142 0.001724475
-0.043401353 0.11273169 -0.10203983 -0.041677665 0.0022480031 -0.037669733 -0.16272877 -0.030664278
-0.039155807 -0.07478985 -0.037361987 0.053250317 -0.03401054 0.04617726 -0.0132898595 -0.050377127
-0.051319674 0.023044307 -0.024455814 -0.02978509 -0.02572176 -0.02823768 0.028720418 0.048472077
0.097772144 -0.029987281 -0.109260395 -0.007397585 -0.008408849 0.047755755 0.018574681 -0.05754168
0.009700708 -0.030847235 -0.056439966 -0.014157243 -0.068238005 0.12431826 -0.0010072882 0.01703337
0.11451663 0.008916236 -0.10331029 -0.005035106 0.09199629 0.005060085 -0.060014296 0.06140961
-0.03557345 0.10607278 -0.08297346 -0.03991823 0.003928382 0.043771673 -0.039951142 0.10123544
0.007983308 -0.075340934 -0.08203335 0.06760347 -0.0680964 -0.010905333 -0.010120843 0.015605905
0.1185945 -0.061512332 -0.060145434 0.0914189 0.07477205 0.050972372 -0.053179443 0.0536734
0.0838305 -0.087149136 0.07048865 0.010659176 0.032795582 -0.005368112 0.05266061 -0.0389802
0.1799623 0.10841844 -0.12835859 0.09891155 0.08692067 0.07457863 -0.10162246 -0.0036323904
0.039314177 0.06717723 0.08758863 0.04620167 0.04424624 -0.07461474 0.06281942 0.11958628
0.02847939 0.03885769 -0.108184025 0.007908604 0.11958493 0.09997421 -0.07795293 -0.06094674
0.101196595 0.103258155 0.07539431 0.10497955 0.10508938 -0.051921148 0.020041106 -0.023845607
0.072858535 0.029234095 -0.1192195 0.025587399 0.03514594 -0.04884933 -0.04055707 0.07993859

sequential_1/final/BiasAdd/ReadVariableOp f4 [3]
00000000: a68e 09bd 2e4f c1bc d837 6f3d
-0.033583306 -0.023597326 0.058402866

sequential_1/dense_1/BiasAdd/ReadVariableOp f4 [10]
00000000: ca17 803e bcf0 32bc 4c36 2bbc 1d1c 173e
00000010: 745d dabc 9a9f 623d 52d7 ac3d 4292 30bd
00000020: 8f88 10bc e7b5 1dbc
0.2501815 -0.010921653 -0.010449957 0.14756818 -0.02665589 0.05532799 0.084395066 -0.043108232
-0.008821621 -0.009625888

sequential_1/dense_1/MatMul f4 [10, 480]
00000000: e635 b83c 6c4b aabc 5765 493e 3363 b63e
00000010: 6975 aabe ea4d a5bc afad f0bd 983b 303e
00000020: 6daa e93d 85f4 5e3d 7ee4 a4bd 0847 8b3d
00000030: a5c2 4f3d d027 813e c49f 8b3d dfd9 4b3e
00000040: 7c38 c3bd 3c85 243c b121 03bd 1e68 123e
00000050: 9cd2 e8bd e902 843e 63c2 99bd 4ba5 99be
00000060: 285e 133e 7514 df3d cbd3 103e 2976 bbbd
00000070: 5bcc 243e 2385 573d 825a 4dbc 252c e5bd
00000080: 0665 c13d 6a7a 2b3e 4b6a 8d3e d5ee 83be
00000090: 6bb8 84bd ade4 21bb 50f1 a4be 4dd8 bd3d
000000a0: e84f 193e 0344 a6bc 67f2 953c 2019 47bd
000000b0: 1504 40bd 6c05 a63d 2c74 cb3c a8ee e53e
000000c0: 41d4 a03e 3964 623d 64e5 cfbd 9fcf 523d
000000d0: dfdb 883e 1fbd febd 51e9 48be b00e 58be
000000e0: 198e 59bd 9ffa 02bd 19a1 623e 159a a5bd
000000f0: 1615 3f3e c748 f83d 9bab fbbc 94f4 a13d
00000100: 6cb3 663b 8715 c33d e614 c7be 78f2 54bd
00000110: 5f64 76be 013c 073c 270e 14be 17ea 1c3d
00000120: 45f0 6c3c 5168 963d 6136 2b3d 8418 bcbc
00000130: 6d42 1d3d c627 12bc 0cb3 3a3d c957 8abc
00000140: f39b 5d3e 9485 3f3e 2973 d3be b135 243e
00000150: b5c2 18be 60a4 01be 4d60 d5be 2081 3c3c
00000160: 783d 42bd 7740 373c fd6c 413e 4fd2 4a3d
00000170: df9b 61bc 73fd 9f3c 7cd4 d5bc 6bcf a43d
00000180: 6079 263e 4783 c93d aafe c03e f7f0 763e
00000190: a445 0dbf f891 113e b694 d2bc 4910 b3bc
000001a0: 7c2f fe3b f3bf 4f3d 7c33 19bc e250 b9be
000001b0: 88bd e03c bcc4 df3c cbad 06be f6c0 41be
000001c0: 1d59 26be 99c8 b03d a352 eabe cfd2 843e
000001d0: f86e 583d 29b7 d6be 0011 833d a4c4 7ebd
000001e0: 8d37 9cbc c16b 37bd 05d4 753d 6e77 ca3d
000001f0: 5639 bb3c b0ed 073d 07ad b2bc 4de1 6b3e
00000200: 1f27 3ebc 0969 443e 8871 5ebe fd48 cd3e
00000210: fb3f a33d 5539 b7bb fef5 943c 7dd3 e13c
00000220: 4db4 663e d679 e3bc 2196 a23d 44cd 9dbe
00000230: 4c56 183e 3b78 8d3e 3a4d b3bd e814 11be
00000240: e604 bbbd 4a2a 243e baa3 4f3d c1b0 cc3d
00000250: 334f 953d cd87 483e bc8f ba3e 5b1a aebe
00000260: 46fc 68bd 0efa 783d 2d60 753d 10a8 a33d
00000270: 0256 5a3c 7368 063e 311e 4c3d 8973 11be
00000280: c17b 5cbc b908 a43e 674b f1be e4df 303e
00000290: 40dd 85bd 0f6e 98bd 3eb1 8c3e d5e6 0abe
000002a0: b0f4 cebd ac1c 8c3d 2fe5 a23d 1936 2c3e
000002b0: 8db2 ca3d 23ce 64bd 962f 153d 278f 6ebe
000002c0: 81ab 2a3d e52f 503d a2e4 173d c3a0 233e
000002d0: cd69 04bd 06c6 ba3d 69a0 bcbc 7a96 b63d
000002e0: 16f4 d0bd 1f1b 35bd 0ccc 173e 2808 cb3c
000002f0: 4f46 2fbc de87 2abe 8109 f1bd 8e61 bcbc
00000300: 33f8 1c3d 9621 793e a501 b7be 1489 1fbe
00000310: a64c a03e f116 09be b9dd 433d 8af1 47bc
00000320: ab2c 07be 1688 babc bd53 b1bd 5447 81bd
00000330: 4962 3c3e 4002 a3bd 9b9d e5bc 9ab9 84be
00000340: 2850 78bd cab0 003c 939a 7f3d 1874 8f3e
00000350: 8619 46bc 4af6 7cba 9d5c c5bd eea1 22be
00000360: 5319 023d f4a4 49bc c88d c6bd ff4a ad3d
00000370: 53a6 38bd 5873 093e c61e 8abd 47e0 5e3d
00000380: 46a0 fcbd 931c 853e bc78 593c addd 733d
00000390: f1d9 13be a916 0bbe 585c 323d 878f e3bd
000003a0: 3e9b 343e f64b 943d 1edf 9bbd 4591 3ebe
000003b0: d90d 483e 3746 c53c 74bd 313d 5709 10bc
000003c0: 89eb c6bd 6b59 413e fe06 d3bd 9c40 bc3d
000003d0: b2e4 c0bd 601e ddbd f81c c53d 72c9 86bd
000003e0: 7307 fa3d f31b 9dbd 8d93 8bbc bf97 85bc
000003f0: fcbe 963d 98e9 93bc 38c5 213d e613 b83c
0.022486638 -0.020787917 0.19667564 0.35622558 -0.33292702 -0.020178754 -0.117518775 0.17210233
0.11409459 0.05443241 -0.08051394 0.068006575 0.050722737 0.25225687 0.06817582 0.1990733
-0.09532258 0.010041531 -0.032014553 0.1429753 -0.113682956 0.2578347 -0.075077794 -0.3000892
0.14391387 0.10892574 0.14143293 -0.09153397 0.1609358 0.052617203 -0.012533786 -0.111900605
0.09443097 0.16745916 0.27620158 -0.25768152 -0.064804874 -0.0024702952 -0.32215357 0.09269772
0.14971888 -0.020296102 0.018304063 -0.048607945 -0.046878893 0.08106503 0.024835669 0.44908643
0.31411937 0.05527136 -0.10151175 0.051467534 0.26730248 -0.12438416 -0.19620253 -0.21099353
-0.05311403 -0.031977292 0.22131766 -0.080860294 0.18660387 0.12123256 -0.030721476 0.07907978
0.0035202159 0.095255904 -0.38883132 -0.05198905 -0.24061726 0.008254052 -0.14458524 0.038309183
0.014461582 0.073441155 0.041799907 -0.022960909 0.038393427 -0.008920616 0.04558091 -0.016887562
0.21641521 0.187033 -0.41298798 0.16036107 -0.14918025 -0.1266036 -0.41675034 0.011505395
-0.047421902 0.011184803 0.18889232 0.049516972 -0.013770073 0.019530034 -0.026102297 0.08047374
0.16257238 0.09839492 0.37694293 0.24115358 -0.5518439 0.14215839 -0.025705677 -0.021858351
0.0077571254 0.050720166 -0.009350654 -0.3619452 0.027434126 0.02731549 -0.13152234 -0.18921265
-0.16244932 0.08632011 -0.45766172 0.25942084 0.052840203 -0.41936615 0.06399727 -0.06219925
-0.019069457 -0.044780497 0.06001665 0.09886061 0.022854488 0.03318566 -0.021811021 0.23035164
-0.011606007 0.19180693 -0.21722996 0.40094748 0.07971188 -0.0055915513 0.018183704 0.027566666
0.22529717 -0.027768057 0.07938791 -0.30820668 0.1487667 0.2763079 -0.08754964 -0.14168131
-0.09131794 0.16031757 0.05069325 0.09994651 0.07290497 0.19583054 0.36437786 -0.34004483
-0.05688121 0.060785346 0.059906173 0.0799104 0.01332617 0.13125782 0.04983348 -0.1420423
-0.01345724 0.32037905 -0.4712784 0.17272907 -0.06536341 -0.07442867 0.27478975 -0.13564618
-0.10105264 0.06841406 0.079538696 0.16817512 0.09897337 -0.05586065 0.036422335 -0.23296796
0.041667465 0.050826926 0.037083276 0.15979294 -0.032327462 0.09119801 -0.023025708 0.0891542
-0.10202806 -0.044215318 0.14823931 0.024784163 -0.010697915 -0.16653392 -0.11769391 -0.022995736
0.03832264 0.24329218 -0.35743442 -0.15579635 0.31308478 -0.13387658 0.047818873 -0.0122035835
-0.13200633 -0.022769969 -0.0865855 -0.06312433 0.18396868 -0.079594135 -0.028029254 -0.25922853
-0.060623318 0.00785465 0.062403273 0.2801826 -0.012091046 -0.0009649737 -0.09636805 -0.15882084
0.031762432 -0.012307394 -0.096950114 0.0846157 -0.045080494 0.13422906 -0.06744151 0.054413106
-0.12335257 0.25998363 0.013273414 0.05953758 -0.14438607 -0.13582863 0.043545097 -0.1111136
0.17637345 0.07241051 -0.076109156 -0.18610103 0.19536532 0.024081333 0.043393567 -0.008791289
-0.097128935 0.18881766 -0.10304068 0.09192011 -0.0941862 -0.10796809 0.09624666 -0.065813914
0.12208452 -0.076713465 -0.017038131 -0.01630771 0.07360646 -0.018055722 0.039494723 0.022470426

sequential_1/final/MatMul f4 [3, 10]
00000000: 7305 d5bc 5436 c2be 7ec6 983d 3856 2fbf
00000010: e7c8 b5bd 2b2c 173f 1b91 c53d 0f76 613e
00000020: 60b8 53be 19ef 17bf 3823 883e 5b16 873e
00000030: e1f7 603f 2f33 b7be f27b 233f 1f9f 4cbf
00000040: fcf4 54bf 7554 063f 5813 c7be 0293 283f
00000050: 918e 7a3f bfcf 643e 9fdc a63e c545 7d3e
00000060: ba7a edbe 9a28 74bd c473 88be eb29 77be
00000070: d008 d03e 7e1f 0f3f
-0.026003575 -0.37932074 0.074597344 -0.68490934 -0.0887621 0.5905177 0.09646817 0.22017692
-0.20675802 -0.5934921 0.2658937 0.26384243 0.87878233 -0.35781237 0.63861 -0.799303
-0.83186316 0.5247262 -0.38881946 0.65849316 0.9787379 0.22344874 0.32590196 0.24733646
-0.46382695 -0.059609033 -0.26650822 -0.24137084 0.40631723 0.5590743
